lstm_model_weights.pth (torch, 222945 bytes, 9 tensors)

lstm.weight_ih_l0 f4 [256, 19]
-0.13839915 0.16829048 -0.26405132 -0.204766 0.07886217 -0.21729477 0.0978454 -0.22248496
-0.068159886 -0.15526201 -0.2501726 0.056946132 -0.26294875 0.11567172 -0.24079505 0.16861388
-0.28268367 0.1058671 -0.028458048 0.028629785 0.14355473 0.16238111 -0.012332349 0.0017671451
-0.114756815 -0.03273726 0.039949775 -0.1960386 -0.19338939 -0.1433591 -0.0864189 -0.22426741
0.09273963 -0.2217685 0.089004196 -0.038609717 -0.03679003 -0.19630632 -0.0767708 0.34632623
-0.13642102 -0.15126039 0.25994277 0.07575431 0.34070417 -0.24687803 0.22270869 -0.17113832
0.03972824 0.10154788 -0.0746694 -0.034423675 -0.07029291 0.152565 -0.056107476 0.15214059
-0.08214273 -0.16916016 0.07328468 -0.10044106 -0.20266634 -0.120833926 -0.2557599 0.11311086
-0.50083345 -0.10326962 -0.49043122 -0.026730852 -0.21774831 -0.094563454 -0.13761891 -0.3462849
-0.061127853 -0.20916568 -0.27147198 -0.3873257 -0.20228171 0.3734048 -0.07594607 0.08206887
0.21543159 0.015551029 0.12438449 -0.18795536 0.113228925 -0.15493985 0.02742766 -0.26739377
-0.101142384 -0.07157446 0.016346227 -0.060054377 -0.13749778 -0.05865339 -0.18199283 -0.00539928
-0.14422378 -0.12062244 -0.26519516 -0.154042 -0.23281069 -0.20814887 -0.14289552 -0.09845733
-0.1977523 0.09394356 -0.00083360274 -0.10429766 0.003673049 -0.07478073 0.14355066 0.06005092
0.20661451 0.09612351 0.04795978 0.24059182 0.22676471 -0.12833063 -0.044009674 -0.0469639
-0.16790341 -0.02665267 0.013737794 -0.2062577 0.05398587 0.039567813 0.14575434 0.10116242
0.010659161 0.11766193 -0.17061259 0.06902297 -0.11381305 -0.055045683 0.0039420603 0.07252758
-0.020381901 -0.3339784 0.0027973223 -0.22947279 -0.16017392 -0.15451503 -0.24335635 -0.091677
-0.23305862 0.04424479 0.0062254807 0.22368443 0.003345097 0.15208553 0.020185158 0.07675217
-0.09495616 -0.11572586 0.05207372 0.05867136 -0.11080247 0.005930363 -0.08258869 0.0023112572
-0.18208483 -0.037804455 -0.032016773 -0.1316252 -0.019330679 -0.17215377 -0.045407426 -0.026272556
0.06613319 -0.34904316 -0.0142497765 -0.16334455 -0.035138886 -0.046879794 -0.12765196 -0.17435518
-0.16195804 -0.068658136 -0.15421115 -0.008789942 -0.1392647 -0.07474141 -0.24706933 -0.16213219
-0.23982953 -0.33984715 -0.118472695 -0.16396022 0.002082579 -0.09861201 -0.06195549 0.3363476
0.034140553 -0.15824522 0.028834188 -0.25666136 0.17689303 -0.17972013 -0.0038631454 -0.04326162
-0.061547294 -0.3188053 -0.5791537 -0.23659268 -0.6105183 -0.41218582 -0.3943185 -0.26238975
-0.60288894 0.1511788 0.10121913 -0.011120561 -0.03534211 0.095759384 0.11106458 0.070111066
0.07360951 -0.1554901 -0.008927687 -0.01234148 -0.042950146 -0.039262548 -0.19793728 -0.076072805
-0.026168542 -0.12350836 -0.24326429 -0.12769382 -0.28435653 -0.25573078 -0.08951459 -0.36590168
-0.2534219 -0.21570647 -0.37388444 -0.5076099 -0.035233427 -0.31800494 -0.02711334 -0.03283489
0.19163834 0.053610902 0.12550776 -0.014114084 0.099095464 -0.14631535 0.02455204 0.07850958
0.10507534 0.11679371 -0.322107 -0.17588307 -0.15611254 -0.01244481 -0.13144569 -0.114730686
00000000: 82b8 0dbe 5754 2c3e bc31 87be 2eae 51be
00000010: 7d82 a13d 8582 5ebe 2b63 c83d 19d3 63be
00000020: 6997 8bbd 01fd 1ebe 9f16 80be 5940 693d
00000030: 38a1 86be 4be5 ec3d fa92 76be 1ea9 2c3e
00000040: eabb 90be dad0 d83d da20 e9bc 0389 ea3c
00000050: 0300 133e 3c47 263e 9f0d 4abc 8d9f e73a
00000060: 9f05 ebbd 8117 06bd 60a2 233d 58be 48be
00000070: de07 46be bacc 12be 64fc b0bd 5ba6 65be
00000080: 46ee bd3d 4817 63be d547 b63d 3925 1ebd
00000090: 24b1 16bd 8604 49be 023a 9dbd ac51 b13e
000000a0: f4b1 0bbe 01e4 1abe 3817 853e 1325 9b3d
000000b0: c770 ae3e 98cd 7cbe bf0d 643e e23e 2fbe
000000c0: 14ba 223d 56f8 cf3d 45ec 98bd d7ff 0cbd
000000d0: bbf5 8fbd 003a 1c3e f4d0 65bd beca 1b3e
000000e0: 733a a8bd 5238 2dbe 4716 963d 0bb4 cdbd
000000f0: c487 4fbe c777 f7bd f6f2 82be aba6 e73d
00000100: 9f36 00bf 067f d3bd cd19 fbbe a9fa dabc
00000110: 6af9 5ebe 7caa c1bd f9eb 0cbe 414c b1be
00000120: 3361 7abd 872f 56be 60fe 8abe 8e4f c6be
00000130: f022 4fbe ea2e bf3e 9d89 9bbd b913 a83d
00000140: 199a 5c3e bec9 7e3c 4cbd fe3d 5f77 40be
00000150: 91e4 e73d 8da8 1ebe f9af e03c d6e7 88be
00000160: bd23 cfbd a195 92bd 86e8 853c 94fb 75bd
00000170: 38cc 0cbe 893e 70bd 545c 3abe 72ec b0bb
00000180: 66af 13be e608 f7bd a9c7 87be 30bd 1dbe
00000190: ed65 6ebe fa24 55be 3453 12be ffa3 c9bd
000001a0: 947f 4abe 7b65 c03d 2286 5aba 039a d5bd
000001b0: 89b7 703b a426 99bd f2fe 123e f4f7 753d
000001c0: c192 533e 67dc c43d 7971 443d b45d 763e
000001d0: 0235 683e 1b69 03be 7d43 34bd 385d 40bd
000001e0: dfee 2bbe b356 dabc 7c14 613c 3835 53be
000001f0: 4a20 5d3d dc11 223d a040 153e 3e2e cf3d
00000200: c3a3 2e3c bdf8 f03d 11b5 2ebe ea5b 8d3d
00000210: d116 e9bd 9577 61bd 662c 813b 5789 943d
00000220: f2f7 a6bc 38ff aabe 4853 373b eafa 6abe
00000230: a204 24be 3039 1ebe 6832 79be 27c1 bbbd
00000240: eba6 6ebe 063a 353d 1eff cb3b 880d 653e
00000250: 6a39 5b3b 4fbc 1b3e 585b a53c 3e30 9d3d
00000260: 6078 c2bd ae01 edbd 414b 553d 6151 703d
00000270: 68ec e2bd 7e53 c23b 4224 a9bd 7678 173b
00000280: 7274 3abe d8d8 1abd 0524 03bd c2c8 06be
00000290: 5f5b 9ebc 1449 30be 23fd 39bd 8b39 d7bc
000002a0: d770 873d c9b5 b2be e577 69bc cb43 27be
000002b0: cbed 0fbd 0705 40bd 32b7 02be 2a8a 32be
000002c0: 54d8 25be a39c 8cbd 87e9 1dbe b003 10bc
000002d0: 689b 0ebe 0612 99bd beff 7cbe fb05 26be
000002e0: df95 75be 7200 aebe d0a1 f2bd 30e5 27be
000002f0: e17b 083b 18f5 c9bd 0ac5 7dbd c135 ac3e
00000300: f7d6 0b3d 090b 22be ad35 ec3c 1e69 83be
00000310: 7223 353e 8e08 38be d32c 7dbb 1933 31bd
00000320: 0419 7cbd 733a a3be 6b43 14bf 5a45 72be
00000330: ed4a 1cbf 050a d3be 1de4 c9be f357 86be
00000340: ee56 1abf 9ece 1a3e fa4b cf3d 0333 36bc
00000350: e3c2 10bd 7f1d c43d d475 e33d 6496 8f3d
00000360: 95c0 963d cc38 1fbe 6f45 12bc eb33 4abc
00000370: 7eec 2fbd c4d1 20bd 12b0 4abe 0fcc 9bbd
00000380: 695f d6bc f3f1 fcbd 461a 79be 2bc2 02be
00000390: 2e97 91be 25ef 82be 6d53 b7bd 7757 bbbe
000003a0: 84c0 81be 28e2 5cbe c86d bfbe b9f2 01bf
000003b0: ed50 10bd 8bd1 a2be cc1c debc e17d 06bd
000003c0: d73c 443e 1b97 5b3d 1b85 003e c23e 67bc
000003d0: 90f2 ca3d b1d3 15be 5c21 c93c a1c9 a03d
000003e0: bd31 d73d 8a31 ef3d 35eb a4be b11a 34be
000003f0: f7db 1fbe 51e5 4bbc b399 06be ecf7 eabd

lstm.weight_hh_l0 f4 [256, 64]
-0.013413524 -0.2736551 -0.061483204 -0.1184376 0.46860167 -0.08567327 0.0055294777 -0.06738674
-0.4198961 -0.011820463 0.052262798 0.06325258 0.1546111 0.30888027 0.09334301 0.119560376
-0.17632964 -0.22657911 0.08993308 0.09187803 0.04294635 -0.1465018 0.2517791 -0.3466291
0.15637796 -0.14786239 -0.13292038 0.12553208 0.19450086 -0.10527937 -0.06380556 0.626656
-0.0017103709 -0.1224511 0.092118956 -0.25062627 0.30488977 0.27231693 0.07967338 -0.052917775
-0.06530884 0.24688734 -0.04673918 -0.2897503 -0.40970808 0.23486778 0.15530236 0.121615544
0.22121745 0.08263747 0.30135277 0.5164144 0.19602783 -0.4920093 0.46043703 0.22338703
-0.05858366 -0.052663863 -0.09264753 0.1536169 -0.1958995 -0.15681446 0.06520691 -0.34333286
0.5522172 -0.043017074 -0.21559554 -0.11625569 0.096294805 0.17587532 -0.10778112 -0.234722
0.029628513 -0.0841992 0.0515776 -0.15918 -0.60403126 0.2146396 -0.05716795 -0.07802318
-0.13343401 0.27091 -0.0480546 -0.29965183 0.14977643 -0.01696776 -0.0841608 -0.33441406
-0.03180025 0.01733911 0.22061077 0.089594014 -0.09930654 -0.010456137 -0.30338234 0.30966187
0.030606184 0.11519008 0.50806105 0.0818328 0.070268 -0.093714565 0.1371075 0.000754073
0.11224168 0.51409596 0.2975442 -0.3105617 -0.38010466 0.17293108 0.12661006 -0.073408335
0.0059508085 -0.17851412 -0.1447998 -0.16637215 0.13089187 -0.33585656 0.101264164 -0.086821124
0.039216667 0.0049363817 0.06690408 0.11190664 0.09091356 -0.13524872 0.20829579 -0.2246543
0.31027725 0.24446592 -0.40590224 -0.011931096 -0.16390158 0.13365752 -0.20536426 -0.02916662
0.09079445 -0.3675991 -0.275835 -0.24464306 0.19130929 -0.26763588 -0.42389902 0.27790582
0.04693493 -0.21878937 -0.0030216624 -0.23037942 -0.17489031 -0.30902833 0.043435156 0.15935676
-0.29023215 -0.46857274 0.45191753 0.17297314 -0.012610219 -0.16403951 -0.0826506 0.034587342
0.28330183 -0.14407231 0.49809143 -0.073665254 -0.032485683 0.28459004 0.2339173 0.016852582
0.27826616 0.15796003 0.4376808 0.046639502 0.13966906 -0.17593625 0.07391952 0.12103614
0.102329254 0.10068068 0.1362396 -0.14973058 0.22000697 -0.15014058 -0.07841344 -0.14727838
0.041697584 -0.23079932 0.31643507 -0.31873652 0.19898677 -0.27257955 0.42050838 -0.007333625
-0.049995985 -0.2428495 -0.26216516 -0.15748571 -0.06901184 -0.12379602 -0.0040380345 0.24320152
0.008399354 -0.0079428945 0.01423759 0.18441154 0.17165996 -0.16307905 -0.31953594 0.15955338
-0.094427735 -0.2533746 0.11424638 -0.0010249565 0.1564046 -0.12748931 0.20886923 0.13867596
-0.12876466 -0.24653156 -0.15799135 0.4107689 -0.19801015 0.11880303 0.24265759 0.0047657667
-0.1670831 0.02743302 0.10577086 0.30484998 0.2512366 -0.11321841 0.189018 -0.026037697
0.0897246 -0.20626146 0.26813957 0.24970588 0.28540266 -0.09678643 0.23946317 0.15187651
0.34322852 0.21992365 0.040610924 -0.047664795 -0.28715676 0.2180651 -0.19229393 -0.029672984
-0.32946017 0.30294698 0.1165981 -0.15460782 -0.1557369 -0.43613657 -0.1985844 -0.016488535
00000000: 66c4 5bbc 851c 8cbe d0d5 7bbd 6a8f f2bd
00000010: 8fec ef3e 7875 afbd 9f30 b53b 0f02 8abd
00000020: 9ffc d6be 9eaa 41bc 8411 563d 928a 813d
00000030: 5f52 1e3e 8e25 9e3e 9f2a bf3d 12dc f43d
00000040: c28f 34be 5b04 68be d62e b83d 8c2a bc3d
00000050: 83e8 2f3d 9104 16be 31e9 803e 5f79 b1be
00000060: 8b21 203e 3d69 17be 481c 08be 7b8b 003e
00000070: 3c2b 473e b69c d7bd 7dac 82bd 876c 203f
00000080: 862e e0ba a4c7 fabd dda8 bc3d 1652 80be
00000090: 831a 9c3e 206d 8b3e cc2b a33d 4fc0 58bd
000000a0: a4c0 85bd 09d0 7c3e 9571 3fbd 275a 94be
000000b0: 42c5 d1be 2e81 703e 9507 1f3e 9211 f93d
000000c0: d486 623e d53d a93d e94a 9a3e bc33 043f
000000d0: 85bb 483e a5e8 fbbe 67be eb3e 92bf 643e
000000e0: 6bf5 6fbd 10b6 57bd fdbd bdbd c04d 1d3e
000000f0: e199 48be f893 20be 338b 853d 53c9 afbe
00000100: 1b5e 0d3f ac32 30bd 14c5 5cbe 7717 eebd
00000110: 3636 c53d a918 343e 59bc dcbd f75a 70be
00000120: 7fb7 f23c a170 acbd 0943 533d 1500 23be
00000130: cba1 1abf 7cca 5b3e f128 6abd 9eca 9fbd
00000140: eda2 08be b7b4 8a3e e6d4 44bd f76b 99be
00000150: fe5e 193e f9ff 8abc 7f5c acbd 5238 abbe
00000160: fb40 02bd c00a 8e3c cae7 613e 117d b73d
00000170: 3a61 cbbd 3850 2bbc ee54 9bbe 008c 9e3e
00000180: d2b9 fa3c c7e8 eb3d 4a10 023f f497 a73d
00000190: abe8 8f3d 6ced bfbd e965 0c3e fbac 453a
000001a0: f7de e53d cb9b 033f b757 983e f101 9fbe
000001b0: 149d c2be d814 313e 11a6 013e 1c57 96bd
000001c0: 00ff c23b 68cc 36be 6646 14be 765d 2abe
000001d0: 8508 063e 64f5 abbe 9663 cf3d 46cf b1bd
000001e0: a8a1 203d 5fc1 a13b 0205 893d 4f2f e53d
000001f0: e330 ba3d a47e 0abe 7e4b 553e c70b 66be
00000200: a9dc 9e3e 4655 7a3e 6bd2 cfbe a57a 43bc
00000210: d1d5 27be 84dd 083e 024b 52be d6ee eebc
00000220: 71f2 b93d f335 bcbe 3f3a 8dbe b683 7abe
00000230: 95e6 433e 9207 89be 4b09 d9be ac49 8e3e
00000240: d73e 403d 520a 60be 1507 46bb 95e8 6bbe
00000250: 7216 33be f638 9ebe 10e9 313d 6b2e 233e
00000260: 4f99 94be c4e8 efbe bc61 e73e df1f 313e
00000270: 189b 4ebc f9f9 27be b844 a9bd 75ab 0d3d
00000280: f00c 913e b187 13be d705 ff3e cfdd 96bd
00000290: b50f 05bd c9b5 913e 0488 6f3e 6d0e 8a3c
000002a0: e778 8e3e 46c0 213e b317 e03e 1009 3f3d
000002b0: 6805 0f3e a228 34be 1e63 973d cce1 f73d
000002c0: 0092 d13d ac31 ce3d 6582 0b3e f952 19be
000002d0: 8249 613e 74be 19be 3a97 a0bd 25d0 16be
000002e0: 16cb 2a3d a856 6cbe c703 a23e 6f31 a3be
000002f0: 30c3 4b3e 8c8f 8bbe e04c d73e e84e f0bb
00000300: 97c8 4cbd 8aad 78be 833a 86be ef43 21be
00000310: 1456 8dbd c588 fdbd 7d51 84bb d209 793e
00000320: 729d 093c ea22 02bc c844 693c 61d6 3c3e
00000330: a1c7 2f3e 32fe 26be 379a a3be f661 233e
00000340: 5463 c1bd 51ba 81be 02fa e93d d557 86ba
00000350: 8728 203e 8f8c 02be d1e1 553e 1201 0e3e
00000360: e2da 03be c572 7cbe 7cc8 21be 4d50 d23e
00000370: 2cc3 4abe 014f f33d 3b7b 783e 262a 9c3b
00000380: d517 2bbe 36bb e03c 659e d83d 4c15 9c3e
00000390: 15a2 803e 0edf e7bd ef8d 413e 024d d5bc
000003a0: 88c1 b73d 3436 53be 9749 893e e6b2 7f3e
000003b0: 4c20 923e f737 c6bd d535 753e 8485 1b3e
000003c0: a6bb af3e aa33 613e a457 263d 293c 43bd
000003d0: 3606 93be 754c 5f3e b3e8 44be c214 f3bc
000003e0: 01af a8be de1b 9b3e fcca ee3d 8351 1ebe
000003f0: 7e79 1fbe 4b4d dfbe b559 4bbe f712 87bc

lstm.bias_ih_l0 f4 [256]
0.022698108 -0.09175621 0.06127549 -0.25604635 -0.019703453 -0.1311162 -0.017817019 0.037589755
-0.08188405 -0.08125515 -0.28410047 -0.119943015 -0.34076867 -0.13599306 -0.16024463 -0.1772131
-0.013092348 -0.190707 -0.18788087 -0.34163845 0.018942561 0.017172525 -0.04435276 -0.10174167
-0.093533814 -0.29842603 -0.09291127 -0.13473257 -0.099971585 0.25550833 -0.11854175 -0.06365959
-0.2728766 -0.106937595 0.11842455 -0.011354549 -0.0394205 -0.06871876 -0.13870786 -0.24790074
-0.0920494 0.039877765 0.3274466 -0.26450533 -0.00067892385 -0.15983757 0.14993414 0.15421872
-0.20099522 -0.18132015 -0.19360512 0.31414846 0.24285474 0.11020511 0.09999612 0.00079580257
-0.110824786 -0.009957012 0.010877804 0.19539592 -0.16844845 -0.09594991 -0.012792499 -0.07895153
0.04940391 -0.14697407 0.16008416 0.056854956 -0.21583155 0.14686501 0.0057488885 0.0060483385
0.034996502 -0.020294076 -0.10264458 -0.0039623333 0.07462578 -0.2612176 -0.04302235 -0.004578997
-0.16756651 -0.0143370405 0.2925472 -0.018808618 -0.23982453 0.3054672 0.12371949 -0.11187573
-0.26271313 0.10535405 0.29210564 -0.061839975 -0.15230975 -0.041585825 0.0675012 -0.13366887
-0.0060996986 -0.05275697 0.03100355 -0.05503825 0.14797945 -0.098436415 0.12992533 0.04140985
0.1320532 0.054698482 -0.09234036 0.0054273196 -0.08060193 0.15038642 0.006537826 0.11520613
-0.03616007 0.06793203 0.11962396 -0.12010718 0.07053727 -0.021713773 -0.13779087 0.078848585
0.1548671 0.1449554 -0.03992134 -0.22789994 0.0050330358 0.045967773 -0.18058434 -0.115289375
-0.043899897 0.030708035 -0.016066454 0.06430241 0.013346419 -0.06369518 0.06087823 0.06732302
-0.060564883 -0.014536042 0.09189686 -0.03856588 -0.00013442576 -0.05903239 -0.07795011 -0.07261108
0.05107778 -0.021276345 0.0033770674 -0.079350635 0.0016726928 0.102880366 0.038967244 -0.026271427
-0.13028611 -0.069051445 -0.033626556 0.022198204 0.045395333 0.11127719 -0.15371168 -0.1046964
0.010988205 -0.014409007 -0.1310682 -0.088287294 -0.10262003 0.06431802 -0.008835692 0.10118009
-0.06313415 -0.015969321 -0.07691884 0.029606652 -0.01962664 0.011981536 -0.063222975 -0.080643624
0.006258132 -0.10375888 -0.09625873 0.06604863 -0.0104210265 -0.09881276 0.007947057 0.042639934
0.0790351 0.16855389 -0.07113295 -0.09455907 -0.13152878 -0.09040431 0.10576236 0.10117111
0.026865419 -0.11721151 0.048809566 -0.09938419 -0.14249393 -0.12117426 0.12266165 -0.09344722
-0.15260686 -0.26517928 -0.09273837 -0.19687128 -0.1420498 -0.14424218 -0.10442404 0.01975111
-0.060908467 0.03415931 -0.017028369 -0.1479694 0.14929748 0.057167217 0.05831706 -0.09165217
-0.08546208 -0.14303295 0.1507438 -0.038714275 -0.11871878 0.32507542 -0.21288519 -0.022010533
-0.035078034 -0.10806868 0.22842114 -0.12579371 -0.121605836 -0.13293684 -0.04049589 -0.23757418
0.0007288383 0.0909999 0.5332292 -0.12928472 -0.062307615 0.05791253 0.19531035 -0.00040287623
-0.18766722 0.006140705 -0.14080647 0.18179014 0.3218123 0.036544677 0.13994707 -0.04381142
0.050426744 0.055866875 0.22938627 0.22050515 -0.03850803 -0.24756971 -0.028238157 0.090051144
00000000: 62f1 b93c aeea bbbd 02fc 7a3d 8218 83be
00000010: 2369 a1bc 5343 06be fff4 91bc b7f7 193d
00000020: d3b2 a7bd 1a69 a6bd 9e75 91be afa4 f5bd
00000030: 3b79 aebe c441 0bbe 2b17 24be 5a77 35be
00000040: 4a81 56bc b248 43be d863 40be 3ceb aebe
00000050: 6e2d 9b3c 65ad 8c3c 3dab 35bd f05d d0bd
00000060: a88e bfbd 4ccb 98be 4448 bebd 56f7 09be
00000070: e7bd ccbd fdd1 823e 04c6 f2bd f65f 82bd
00000080: 7bb6 8bbe 1902 dbbd 9288 f23d 6e08 3abc
00000090: 6477 21bd 6cbc 8cbd 6f09 0ebe b1d9 7dbe
000000a0: 6584 bcbd de56 233d 15a7 a73e 3e6d 87be
000000b0: cff9 31ba 76ac 23be 5688 193e 83eb 1d3e
000000c0: b1d1 4dbe fdab 39be 6c40 46be 11d8 a03e
000000d0: eaae 783e 37b3 e13d c4ca cc3d 689d 503a
000000e0: 1bf8 e2bd bc22 23bc d138 323c de15 483e
000000f0: c07d 2cbe 6381 c4bd a197 51bc 57b1 a1bd
00000100: c15b 4a3d 5f80 16be 1aed 233e bee0 683d
00000110: f202 5dbe c863 163e 2c61 bc3b 2431 c63b
00000120: 7e58 0f3d c33f a6bc 5237 d2bd 76d6 81bb
00000130: 67d5 983d 50be 85be 3438 30bd 690b 96bb
00000140: 8e96 2bbe e8e5 6abc bfc8 953e 8814 9abc
00000150: 9094 75be 3266 9c3e a560 fd3d 1a1f e5bd
00000160: 5682 86be ddc3 d73d df8e 953e ea4b 7dbd
00000170: 16f7 1bbe e655 2abd 123e 8a3d 7ee0 08be
00000180: fbdf c7bb b117 58bd 28fb fd3c ca6f 61bd
00000190: ed87 173e 0899 c9bd 250b 053e 609d 293d
000001a0: f438 073e 840b 603d f11c bdbd a8d7 b13b
000001b0: a012 a5bd e6fe 193e 423b d63b 31f1 eb3d
000001c0: 951c 14bd f31f 8b3d 68fd f43d c1fa f5bd
000001d0: d875 903d 15e1 b1bc 0d19 0dbe 5e7b a13d
000001e0: 7b95 1e3e 306f 143e 8f84 23bd 9a5e 69be
000001f0: 2aec a43b b448 3c3d 1aeb 38be d61c ecbd
00000200: 61d0 33bd 6b8f fb3c cc9d 83bc fbb0 833d
00000210: f0aa 5a3c 9e72 82bd 735b 793d a7e0 893d
00000220: e212 78bd 9428 6ebc 6c34 bc3d 42f7 1dbd
00000230: a4f4 0cb9 f3cb 71bd 4fa4 9fbd 1eb5 94bd
00000240: ef36 513d bb4b aebc ca51 5d3b 9682 a2bd
00000250: 423e db3a f1b2 d23d 1e9c 1f3d 2d37 d7bc
00000260: b969 05be d86a 8dbd 00bc 09bd 02d9 b53c
00000270: 75f0 393d 4ce5 e33d 9866 1dbe 116b d6bd
00000280: df07 343c c113 6cbc be36 06be f8cf b4bd
00000290: 732a d2bd 2bb9 833d 94c3 10bc 8237 cf3d
000002a0: 7a4c 81bd 18d2 82bc a087 9dbd a689 f23c
000002b0: 0cc8 a0bc 344e 443c 0c7b 81bd 7c28 a5bd
000002c0: 0411 cd3b 897f d4bd 4c23 c5bd 8144 873d
000002d0: f4bc 2abc 585e cabd 5f34 023c 36a7 2e3d
000002e0: 28dd a13d 6499 2c3e 27ae 91bd 30a8 c1bd
000002f0: 7baf 06be e525 b9bd f099 d83d cd32 cf3d
00000300: de14 dc3c 970c f0bd 8aec 473d f089 cbbd
00000310: eee9 11be 362a f8bd 0836 fb3d 4261 bfbd
00000320: f944 1cbe 94c5 87be 9ded bdbd a098 49be
00000330: 8175 11be 39b4 13be 45dc d5bd 14cd a13c
00000340: 287b 79bd a2ea 0b3d 147f 8bbc 4a85 17be
00000350: 70e1 183e 2c28 6a3d dfdd 6e3d 22b4 bbbd
00000360: be06 afbd 3b77 12be 955c 1a3e dc92 1ebd
00000370: d522 f3bd 4970 a63e 93fe 59be 6f4f b4bc
00000380: fcad 0fbd 1d53 ddbd 3be7 693e 11d0 00be
00000390: 7b0c f9bd 9820 08be 05df 25bd a546 73be
000003a0: 830f 3f3a 285e ba3d b581 083f 3763 04be
000003b0: 4536 7fbd b035 6d3d 70ff 473e 2239 d3b9
000003c0: d62b 40be f837 c93b 922f 10be 3227 3a3e
000003d0: 95c4 a43e dfaf 153d 494e 0f3e 9b73 33bd
000003e0: 468c 4e3d aad4 643d 3ce4 6a3e 1acc 613e
000003f0: 99ba 1dbd ea82 7dbe b553 e7bc bc6c b83d

lstm.bias_hh_l0 f4 [256]
-0.03197734 -0.035437915 0.010976343 -0.14041775 -0.055907093 -0.122940645 0.04260267 -0.011600853
-0.040457312 -0.18811712 -0.3164799 -0.02068605 -0.2545311 -0.34045836 -0.09136671 -0.1459687
-0.042632293 -0.110645875 -0.12123668 -0.20679939 0.1636017 -0.15753661 -0.0592385 -0.22911039
0.052026447 -0.32885784 0.07459167 0.08297499 0.009506677 0.3438278 -0.32452172 -0.100688145
-0.13043684 0.046069093 0.07196256 -0.14525957 0.07251911 -0.027849082 -0.075943634 -0.26737243
-0.064607225 0.12627818 0.48344836 -0.23111251 0.03178433 0.031002555 0.21031202 -0.055970598
0.02097487 0.010732074 -0.2802716 0.2000102 0.40749702 0.11889596 -0.07337343 -0.08046065
0.034668107 0.023421593 0.071359135 0.20699258 -0.12823936 -0.107169434 -0.08984607 0.0047388515
0.008559049 -0.25285345 0.11790879 0.038583763 -0.071521744 0.038937718 -0.072641164 -0.20102248
0.057845138 -0.010368453 -0.29219234 -0.043205287 -0.1504606 -0.20717724 -0.04824153 0.16623718
-0.08986564 -0.11049902 0.15434249 -0.076118134 -0.27831942 0.2883176 0.105023846 -0.07105646
-0.18516764 -0.06377693 0.12971425 -0.19328468 0.0595663 -0.0057868585 -0.011135052 -0.25824377
0.037233893 0.07366084 -0.11885157 -0.06909149 0.16617166 -0.18761675 0.030135674 -0.06679367
0.1817823 0.26186478 -0.07975908 -0.07228893 -0.060074136 0.084058315 -0.030569449 0.027992988
0.051782593 0.02548159 0.11321983 0.09062962 0.059912257 0.14176203 0.0575592 0.03887281
0.17057744 0.12743452 -0.15561834 -0.14523827 0.072284296 -0.048213348 -0.17454001 -0.12169453
0.099412195 0.06792389 -0.03393698 0.12889402 -0.079750635 0.11294703 -0.06830073 -0.0809973
0.1180317 0.09789125 0.19898663 -0.08768147 0.021627726 0.041660666 -0.17088433 -0.11007422
-0.08939119 0.08840628 0.044708133 0.005559771 0.06905025 -0.023268323 0.1998199 0.014356729
-0.086681284 0.11894432 0.10211853 -0.06733225 -0.025723225 0.056138765 -0.007202798 -0.13849938
0.01949889 -0.014090891 0.054973077 0.08871727 -0.00878903 0.012568454 -0.12346906 0.0048602824
0.04925663 0.07548612 -0.14071509 -0.14105013 0.03272772 0.15972303 -0.01467553 0.05479682
-0.096140854 -0.0030860335 0.023414865 -0.054916166 -0.17789288 0.058092862 0.04065603 0.17903733
0.068690814 0.036496364 -0.050619222 0.14029805 -0.100899644 0.02391997 0.08838311 0.15654841
0.014546625 0.015495851 0.20958738 -0.044696152 0.09657804 0.0545436 -0.0712965 -0.23856653
-0.11728145 -0.024049597 -0.29958072 -0.124868855 -0.17816962 -0.254373 -0.17975885 -0.108409666
-0.024713205 -0.15410236 -0.018240288 -0.11922643 0.14086601 0.06443594 0.05811717 -0.06963133
-0.048720885 -0.12738554 0.13724738 -0.13851656 0.035754453 0.26965213 -0.054171596 -0.19819355
0.014652916 -0.06445437 0.099641666 -0.062046055 0.02685997 -0.1687403 -0.20801242 -0.22568223
-0.002505328 0.17910261 0.3840541 -0.11223961 0.043692295 0.002699934 0.13117675 -0.06645904
-0.15017912 -0.16534868 -0.16829647 0.29990074 0.36429584 0.056776967 0.05569352 0.14459205
-0.060516868 0.027156055 0.10552259 0.3329686 0.04992432 -0.053435143 -0.1039409 -0.022611521
00000000: acfa 02bd 5927 11bd 1fd6 333c acc9 0fbe
00000010: d6fe 64bd 4ec8 fbbd 2380 2e3d 8111 3ebc
00000020: 91b6 25bd c6a1 40be a709 a2be cb75 a9bc
00000030: e651 82be 8f50 aebe 781e bbbd d278 15be
00000040: 339f 2ebd 4e9a e2bd f04a f8bd 38c3 53be
00000050: 3487 273e 4751 21be 12a4 72bd ea9b 6abe
00000060: af19 553d 0e60 a8be 84c3 983d cbee a93d
00000070: e5c1 1b3c 330a b03e b627 a6be 9635 cebd
00000080: 3c91 05be f2b2 3c3d 1b61 933d edbe 14be
00000090: e684 943d c223 e4bc 5688 9bbd 0ae5 88be
000000a0: cb50 84bd 114f 013e 8b86 f73e c2a8 6cbe
000000b0: 4930 023d 12f9 fd3c 095c 573e 6d41 65bd
000000c0: 7ed3 ab3c 95d5 2f3c c27f 8fbe 79cf 4c3e
000000d0: 73a3 d03e ba7f f33d cf44 96bd 8ec8 a4bd
000000e0: 2500 0e3d a4de bf3c bd24 923d ddf5 533e
000000f0: 2e51 03be a67b dbbd 3701 b8bd 5e48 9b3b
00000100: 413b 0c3c 0276 81be 2a7a f13d 020a 1e3d
00000110: fe79 92bd 287d 1f3d e4c4 94bd d6d8 4dbe
00000120: 06ef 6c3d 72e0 29bc 3c9a 95be 07f8 30bd
00000130: 5812 1abe 4526 54be e998 45bd 143a 2a3e
00000140: 7a0b b8bd 4f4d e2bd f50b 1e3e d3e3 9bbd
00000150: e27f 8ebe 5d9e 933e be16 d73d 0d86 91bd
00000160: 969c 3dbe 7b9d 82bd d0d3 043e 6bec 45be
00000170: cbfb 733d b09f bdbb cb6f 36bc 8738 84be
00000180: 9182 183d 7fdb 963d 7468 f3bd d77f 8dbd
00000190: e728 2a3e 9b1e 40be 17df f63c 1fcb 88bd
000001a0: 2425 3a3e 2413 863e bb58 a3bd 380c 94bd
000001b0: 4c10 76bd c426 ac3d c86c fabc 8d51 e53c
000001c0: fc19 543d c4be d03c ccdf e73d 069c b93d
000001d0: 8e66 753d 112a 113e 32c3 6b3d 1839 1f3d
000001e0: daab 2e3e 327e 023e 6a5a 1fbe 57b9 14be
000001f0: ca09 943d 5c7b 45bd 9eba 32be fb3a f9bd
00000200: 9f98 cb3d ae1b 8b3d 8101 0bbd cbfc 033e
00000210: 4d54 a3bd c650 e73d 41e1 8bbd eae1 a5bd
00000220: 9bba f13d 357b c83d 27c3 4b3e 5892 b3bd
00000230: a12c b13c 60a4 2a3d 4dfc 2ebe 986e e1bd
00000240: ba12 b7bd 5a0e b53d e01f 373d bd2e b63b
00000250: 386a 8d3d 369d bebc 969d 4c3e 7c38 6b3c
00000260: f585 b1bd 1499 f33d 8523 d13d 7ee5 89bd
00000270: 83b9 d2bc c3f1 653d 7305 ecbb c8d2 0dbe
00000280: 23bc 9f3c 7bdd 66bc 732b 613d 66b1 b53d
00000290: ddff 0fbc ebeb 4d3c 59dd fcbd 0143 9f3b
000002a0: 52c1 493d 7898 9a3d 9e17 10be 726f 10be
000002b0: 800d 063d 6f8e 233e a271 70bc a172 603d
000002c0: 7fe5 c4bd 0d3f 4abb 88d0 bf3c c6ef 60bd
000002d0: 8d29 36be c8f2 6d3d f086 263d 9055 373e
000002e0: c5ad 8c3d 367d 153d 1a56 4fbd 4baa 0f3e
000002f0: 79a4 cebd d0f3 c33c 3402 b53d 3a4e 203e
00000300: f854 6e3c 4fe2 7d3c 139e 563e 5013 37bd
00000310: b5ca c53d 1c69 5f3d e603 92bd c94a 74be
00000320: 4231 f0bd a903 c5bc a562 99be 3ebb ffbd
00000330: 1972 36be 2e3d 82be b412 38be e305 debd
00000340: 5973 cabc 02cd 1dbe a86c 95bc fd2c f4bd
00000350: 2e3f 103e fdf6 833d 450c 6e3d df9a 8ebd
00000360: 8d8f 47bd 5b71 02be 948a 0c3e 49d7 0dbe
00000370: 4373 123d d80f 8a3e 09e3 5dbd 40f3 4abe
00000380: c912 703c a700 84bd ee10 cc3d 0124 7ebd
00000390: 7109 dc3c 42ca 2cbe 3501 55be 3e19 67be
000003a0: 6e30 24bb ad66 373e bda2 c43e e1dd e5bd
000003b0: b1f6 323d 60f1 303b 3353 063e ad1b 88bd
000003c0: 8ec8 19be 2a51 29be e955 2cbe 978c 993e
000003d0: fc84 ba3e f78e 683d e31e 643d f00f 143e
000003e0: 89e0 77bd 6076 de3c 3a1c d83d dc7a aa3e
000003f0: 727d 4c3d cfde 5abd f7de d4bd cc3b b9bc

lstm.weight_ih_l1 f4 [256, 64]
-0.21999198 0.25547767 -0.0073434603 -0.11053485 0.2505975 -0.023371954 -0.008721301 0.10364619
-0.59787333 0.17741835 0.16221672 0.18135235 -0.27159905 0.0040092375 0.4546012 -0.14062963
-0.10423955 -0.4395356 -0.07764687 0.11761995 -0.5391057 0.7415229 0.14016704 -0.00039327107
-0.043079775 0.25299728 -0.5230203 0.22226392 -0.20747381 0.19754578 0.2813124 0.13363416
-0.88009745 -0.09405577 -0.113268614 0.13987634 -0.46171165 -0.31640863 0.09542919 0.23741113
-0.30737785 0.24621788 -0.2532221 -0.051104885 0.37724885 -0.40859646 -0.012543032 -0.18140914
-0.14512518 -0.35673288 -0.4335373 -0.07521937 -0.2752329 0.2851831 0.035163607 -0.10358883
-0.1419557 -0.18453595 0.27076346 0.5409842 -0.11478534 -0.14526969 -0.06917687 0.08423375
-0.29727447 -0.12197316 0.029507138 -0.5447859 -0.0029576505 -0.1583808 0.0004118063 -0.0005194201
0.28188795 -0.0081059765 -0.23678473 0.037751827 0.52833974 -0.13628684 0.5332078 0.11524802
0.025685687 -0.4881267 0.089863755 0.3073551 -0.46032357 -0.06526587 0.031864952 0.38038415
0.04276015 -0.06717416 -0.28056538 0.03674711 0.13956435 0.18916517 0.5283293 0.26558813
0.22263572 -0.38507643 -0.44416472 0.13523248 0.36028478 0.32565647 0.15405324 -0.01922169
-0.08379624 -0.6400893 0.029188117 0.11466022 0.3881772 -0.4275119 -0.25438273 -0.15331803
0.03422607 0.44150412 0.29237115 -0.121291704 0.04302815 0.23271619 -0.05683863 -0.06395378
-0.18578722 -0.2535265 0.074911445 -0.052509323 -0.3220376 0.43521085 -0.4063269 -0.023614261
0.11909078 0.019851442 0.1449722 -0.043853812 0.15545438 -0.012856979 0.041133877 0.2561696
-0.049861953 0.12727189 0.10156393 -0.40565142 0.1816819 0.1204376 0.36405006 -0.08604269
0.030923037 0.26900682 -0.33533797 0.008519004 -0.46225327 0.06031362 0.22731243 -0.25463122
-0.039780144 0.030415865 0.00060478714 0.18784428 -0.20129731 0.057229698 -0.33853966 0.18080015
0.07016926 -0.40978026 0.283199 -0.099538304 -0.103320666 0.033830978 -0.3223635 0.10780936
0.0050504263 0.2192221 0.4444738 -0.23029552 0.101958394 -0.08242767 -0.13106237 -0.37079751
-0.24017675 -0.13522562 -0.2663088 -0.26067838 0.12939085 0.2776707 0.042339202 -0.06605047
0.36176693 -0.14247456 0.11482973 0.6194974 0.043926734 0.020432532 -0.3239023 -0.38411424
0.31619313 -0.20925573 -0.3942885 -0.30403116 0.45155063 -0.13594715 -0.058425114 0.467669
0.38023922 -0.06380811 0.08033164 0.313429 0.11911017 -0.13484155 -0.122993514 -0.35957143
0.2018299 -0.29948816 0.26909962 0.027405778 -0.3864974 -0.3161139 -0.09503391 0.11842119
0.19286029 -0.7189354 -0.31281367 -0.08477298 0.16504084 -0.04830425 0.3592116 0.5489969
0.7633223 -0.4728445 0.043528374 0.101162255 0.50530165 0.4681515 0.026690576 0.15136617
0.45134318 0.19860712 0.4641285 -0.04568027 0.109159306 -0.13985142 -0.8331747 0.2040638
-0.31680924 0.3788369 0.12592947 -0.39262232 0.28904295 0.17446876 -0.0057334746 -0.31231752
-0.029147487 -0.4155662 0.31365958 1.283997 -0.21981767 -0.1850196 -0.18156669 -0.22387348
00000000: 9445 61be f8cd 823e 69a1 f0bb 1860 e2bd
00000010: 514e 803e 8a76 bfbc cae3 0ebc 7444 d43d
00000020: 3a0e 19bf 28ad 353e 241c 263e 6eb4 393e
00000030: 080f 8bbe ec5f 833b 7dc1 e83e 3701 10be
00000040: 8c7b d5bd cf0a e1be 5205 9fbd bae2 f03d
00000050: d502 0abf 72d4 3d3f f387 0f3e f32f ceb9
00000060: 6b74 30bd dc88 813e a9e4 05bf 2799 633e
00000070: 0474 54be 7149 4a3e 2e08 903e 65d7 083e
00000080: 114e 61bf 50a0 c0bd 60f9 e7bd be3b 0f3e
00000090: 7865 ecbe 5000 a2be 6170 c33d e71b 733e
000000a0: a160 9dbe 8a20 7c3e 54a6 81be 5b53 51bd
000000b0: c326 c13e 8e33 d1be 4a81 4dbc 51c3 39be
000000c0: b29b 14be b1a5 b6be 9af8 ddbe 9d0c 9abd
000000d0: 54eb 8cbe 8503 923e b707 103d 6126 d4bd
000000e0: d65c 11be fef6 3cbe 82a1 8a3e f17d 0a3f
000000f0: 9414 ebbd 94c1 14be 9aac 8dbd bf82 ac3d
00000100: 5c34 98be 10cd f9bd f4b8 f13c 1777 0bbf
00000110: 24d5 41bb 942e 22be b5e7 d739 b129 08ba
00000120: 9e53 903e eece 04bc b277 72be a9a1 1a3d
00000130: 4641 073f c78e 0bbe 4e80 083f 2707 ec3d
00000140: ca6a d23c beeb f9be 7d0a b83d a65d 9d3e
00000150: 88af ebbe 1daa 85bd d384 023d b6c1 c23e
00000160: 4425 2f3d 9b92 89bd 44a6 8fbe 2384 163d
00000170: f5e9 0e3e 84b4 413e 9740 073f 2bfb 873e
00000180: 9efa 633e bd28 c5be 8f69 e3be 627a 0a3e
00000190: 3f77 b83e 72bc a63e 22c0 1d3e ce76 9dbc
000001a0: 5d9d abbd e4dc 23bf eb1b ef3c fad2 ea3d
000001b0: 29bf c63e d7e2 dabe 743e 82be 67ff 1cbe
000001c0: a330 0c3d d40c e23e acb1 953e c967 f8bd
000001d0: 493e 303d 274d 6e3e a0cf 68bd 33fa 82bd
000001e0: 013f 3ebe 3ace 81be 2c6b 993d 0414 57bd
000001f0: 1de2 a4be f5d3 de3e 140a d0be b272 c1bc
00000200: dee5 f33d 7e9f a23c 9873 143e 0ea0 33bd
00000210: 6f2f 1f3e 14a6 52bc ff7b 283d a928 833e
00000220: 0c3c 4cbd 9053 023e c000 d03d 8bb1 cfbe
00000230: d20a 3a3e fda7 f63d c564 ba3e 2637 b0bd
00000240: 4f52 fd3c 43bb 893e 6bb1 abbe 4b93 0b3c
00000250: 76ac ecbe 6a0b 773d 97c4 683e 065f 82be
00000260: 81f0 22bd b12a f93c 948a 1e3a 405a 403e
00000270: e220 4ebe b069 6a3d 1255 adbe ad23 393e
00000280: e7b4 8f3d b8ce d1be 76ff 903e bdda cbbd
00000290: c999 d3bd 5a92 0a3d d40c a5be 27cb dc3d
000002a0: 0c7e a53b c27b 603e 1292 e33e 97d2 6bbe
000002b0: 90cf d03d d7cf a8bd 3735 06be 2cd9 bdbe
000002c0: e5f0 75be 9678 0abe a159 88be a377 85be
000002d0: 097f 043e db2a 8e3e df6b 2d3d 7845 87bd
000002e0: 8439 b93e dae4 11be d92b eb3d 6297 1e3f
000002f0: 85ec 333d 2062 a73c 86d6 a5be 9faa c4be
00000300: 11e4 a13e 2247 56be 2fe0 c9be f9a9 9bbe
00000310: a531 e73e bb35 0bbe 2c4f 6fbd 5072 ef3e
00000320: b7ae c23e d4ad 82bd ea84 a43d c479 a03e
00000330: 08f0 f33d e713 0abe 06e4 fbbd bf19 b8be
00000340: 7fac 4e3e 8356 99be 6dc7 893e 1582 e03c
00000350: fde2 c5be aed9 a1be 23a1 c2bd cf86 f23d
00000360: 2b7d 453e 260c 38bf 1d29 a0be 759d adbd
00000370: 7700 293e adda 45bd 95ea b73e 108b 0c3f
00000380: 1769 433f ad18 f2be cf4a 323d 282e cf3d
00000390: 735b 013f 8eb1 ef3e 32a6 da3c bcff 1a3e
000003a0: 7416 e73e aa5f 4b3e 40a2 ed3e 3c1b 3bbd
000003b0: ea8e df3d 3635 0fbe f04a 55bf 1af6 503e
000003c0: d234 a2be e9f6 c13e a8f3 003e cb05 c9be
000003d0: 70fd 933e f0a7 323e dfdf bbbb 15e8 9fbe
000003e0: b6c6 eebc 18c5 d4be fd97 a03e 045a a43f
000003f0: e217 61be c775 3dbe 9eec 39be 173f 65be

lstm.weight_hh_l1 f4 [256, 64]
-0.10719628 0.113446094 -0.17197582 0.60626376 0.15452139 -0.12761287 -0.13382955 -0.18654218
0.27952975 -0.023929298 -0.46007222 -0.34004244 0.37348312 0.50294644 0.047867637 0.013116691
0.10233772 -0.13880679 0.049192026 0.23396984 -0.05456358 -0.048589405 -0.2078051 -0.21989785
-0.6245284 0.015180767 0.06524287 -0.5806141 -0.48624697 0.4442804 -0.52119076 0.14514667
0.22831827 0.1850207 -0.114774734 -0.23535396 0.10841437 0.00064526894 0.35941422 -0.060004305
0.08833183 0.2774422 0.0781345 0.09490374 -0.023191255 -0.26549193 0.12861036 0.3190328
0.27506244 -0.004569762 -0.20839219 -0.18305737 0.11905479 -0.2287279 0.37644732 0.10109703
-0.25294858 -0.21444266 -0.10064322 0.06058851 -0.26429406 0.27169836 -0.05739114 0.19411947
-0.3043896 -0.2749002 0.1716622 -0.22284956 -0.032199312 -0.073065765 0.33389953 0.068277895
-0.13819131 -0.5093362 0.07563718 0.13100794 0.030936684 0.04734537 -0.1568851 0.44725865
0.019195855 -0.5430524 0.31384504 0.25033274 -0.6369265 0.0922096 -0.06902848 0.11063305
-0.18901938 -0.49582216 -0.03559858 -0.21024017 0.13542162 0.09717436 0.07767311 0.14448346
-0.25184715 -0.3635187 -0.25528714 0.2804726 0.09282508 0.56607306 -0.16910356 -0.42572796
0.37229323 0.17567709 -0.13599719 -0.3266048 -0.27185342 -0.02061839 -0.43559507 -0.072901644
0.021613818 -0.051309217 -0.05838648 0.047825016 0.047259886 -0.32112285 0.23380776 0.21180993
0.051860258 -0.021090964 0.27422494 -0.21742858 0.08466615 -0.048623372 -0.013509988 0.0010608464
0.17735825 -0.19963299 0.39588302 -0.1230162 -0.18528782 -0.16746072 0.11916885 -0.10609838
0.05587353 0.14980803 -0.083636984 0.41160697 -0.13597088 0.53630775 0.3673094 0.08418369
-0.23163311 -0.039516877 0.36783016 0.024178402 0.0014048488 0.09024364 0.1726841 0.33119524
-0.090100035 0.15675461 -0.20408522 -0.047561407 -0.13694516 0.10014742 0.016011458 -0.15212315
0.009966248 -0.07547202 -0.00066943944 0.30636463 0.06502601 0.107197665 0.135461 -0.5353497
-0.108344726 0.018876852 -0.06295516 -0.03170633 -0.04950658 0.04451879 -0.12879218 0.03196761
-0.098667786 0.17545033 0.23520865 0.21891144 0.02558453 -0.21970348 -0.26132905 -0.047559362
0.070976995 -0.01366822 -0.19422622 -0.30580816 -0.058385763 -0.18132325 -0.027319066 0.21523894
-0.22859444 -0.15210421 -0.19641833 -0.08801124 -0.24269624 -0.32995817 0.13702117 0.48666295
0.07548713 -0.17345066 -0.49492088 0.14080285 -0.44371358 0.33294645 0.14659515 0.13747603
-0.26483262 -0.056139626 0.44692832 -0.023474006 -0.17282332 0.28258264 -0.14104031 -0.53686
-0.15585107 -0.03382992 -0.68079877 -0.26287612 0.42339328 -0.06722179 0.068512134 -0.3997875
0.3122453 -0.16924249 0.20730586 0.36339062 0.37206918 0.04772184 0.16392079 -0.26232636
0.23024645 -0.5332639 0.087259136 0.012876486 0.08867687 0.08154842 0.07074447 0.4673845
0.060976144 0.18585874 0.27480644 0.5870654 0.07942293 -0.6203228 0.39690623 0.33188677
-0.29748952 0.50631714 -0.317665 -0.6812482 -0.29480758 0.15599295 -0.19658367 -0.41791958
00000000: b989 dbbd 6d56 e83d 6e1a 30be 1a34 1b3f
00000010: db3a 1e3e f3ac 02be 9d0a 09be ea04 3fbe
00000020: 861e 8f3e 6007 c4bc 968e ebbe 0b1a aebe
00000030: 2e39 bf3e 19c1 003f db10 443d 64e7 563c
00000040: 7096 d13d 5e23 0ebe 947d 493d ca95 6f3e
00000050: 0f7e 5fbd af05 47bd dcca 54be e72c 61be
00000060: 18e1 1fbf c0b8 783c 0e9e 853d 20a3 14bf
00000070: 5df5 f8be b878 e33e c26c 05bf 54a1 143e
00000080: 44cc 693e 1176 3d3e 040f ebbd a100 71be
00000090: 5a08 de3d 4427 293a 2405 b83e 13c7 75bd
000000a0: 52e7 b43d e70c 8e3e fb04 a03d e45c c23d
000000b0: 96fb bdbc 8fee 87be 6fb2 033e 4458 a33e
000000c0: fcd4 8c3e f1bd 95bb c364 55be 6473 3bbe
000000d0: ffd2 f33d a637 6abe b4bd c03e f60b cf3d
000000e0: 7a82 81be db96 5bbe 081e cebd a82b 783d
000000f0: 8d51 87be 0c1c 8b3e f912 6bbd 41c7 463e
00000100: f4d8 9bbe b8bf 8cbe 37c8 2f3e ad32 64be
00000110: 6de3 03bd 81a3 95bd e1f4 aa3e 48d5 8b3d
00000120: 0682 0dbe db63 02bf aae7 9a3d f226 063e
00000130: ee6e fd3c 38ed 413d 7da6 20be 16ff e43e
00000140: a040 9d3c 7b05 0bbf 4cb0 a03e 9d2b 803e
00000150: 9d0d 23bf 63d8 bc3d ce5e 8dbd 9593 e23d
00000160: 4c8e 41be 67dc fdbe d1cf 11bd 3349 57be
00000170: f7ab 0a3e 5a03 c73d 1413 9f3d 79f3 133e
00000180: 1cf2 80be 1f1f babe ffb4 82be 1b9a 8f3e
00000190: 131b be3d 2aea 103f 7c29 2dbe 04f9 d9be
000001a0: 389d be3e b2e4 333e d942 0bbe bf38 a7be
000001b0: 5f30 8bbe e6e7 a8bc 5106 dfbe 754d 95bd
000001c0: 760f b13c 9d29 52bd a926 6fbd 2ae4 433d
000001d0: 9593 413d 376a a4be 4d6b 6f3e b4e4 583e
000001e0: 6c6b 543d f5c6 acbc 3667 8c3e 99a5 5ebe
000001f0: 7265 ad3d 4d29 47bd ff58 5dbc 190c 8b3a
00000200: 679d 353e 976c 4cbe 2eb1 ca3e ebef fbbd
00000210: 17bc 3dbe d37a 2bbe cc0e f43d 1c4a d9bd
00000220: a5db 643d 4767 193e de49 abbd 26be d23e
00000230: f33b 0bbe 774b 093f fa0f bc3e 8068 ac3d
00000240: 3b31 6dbe 73dc 21bd 3c54 bc3e c911 c63c
00000250: e722 b83a a8d1 b83d 1ad4 303e 6c92 a93e
00000260: 5e86 b8bd 4884 203e b7fb 50be c0cf 42bd
00000270: 5a3b 0cbe 171a cd3d 762a 833c 2cc6 1bbe
00000280: 7949 233c 1391 9abd 527d 2fba d3db 9c3e
00000290: 5b2c 853d 738a db3d 4ab6 0a3e ae0c 09bf
000002a0: d7e3 ddbd a1a3 9a3c a3ee 80bd 7fde 01bd
000002b0: 69c7 4abd 5659 363d 19e2 03be 78f0 023d
000002c0: 5612 cabd 40a9 333e 89da 703e 522a 603e
000002d0: a696 d13c f3f9 60be eccc 85be 9bcd 42bd
000002e0: 635c 913d abf0 5fbc 3de3 46be e392 9cbe
000002f0: e925 6fbd cdac 39be 3ccc dfbc 9967 5c3e
00000300: a914 6abe 35c1 1bbe e321 49be 3d3f b4bd
00000310: 5d85 78be 47f0 a8be 474f 0c3e e32b f93e
00000320: ff98 9a3d 0d9d 31be 4566 fdbe 9f2e 103e
00000330: 6d2e e3be f577 aa3e 0a1d 163e 84c6 0c3e
00000340: 2498 87be aaf2 65bd cad3 e43e 8f4c c0bc
00000350: 99f8 30be acae 903e df6c 10be a86f 09bf
00000360: 6c97 1fbe 3e91 0abd d448 2ebf b397 86be
00000370: 01c7 d83e 94ab 89bd 1750 8c3d f2b0 ccbe
00000380: 9ede 9f3e e74d 2dbe fd47 543e 560e ba3e
00000390: da7f be3e fa77 433d dada 273e a44f 86be
000003a0: bac5 6b3e fc83 08bf ebb4 b23d e6f7 523c
000003b0: 389c b53d dc02 a73d 7ae2 903d 054d ef3e
000003c0: 1fc2 793d c151 3e3e 6eb3 8c3e eb49 163f
000003d0: 7da8 a23d 7acd 1ebf 4b37 cb3e 10ed a93e
000003e0: 8c50 98be 009e 013f fda4 a2be 4866 2ebf
000003f0: 05f1 96be 9ebc 1f3e 3b4d 49be 8ef9 d5be

lstm.bias_ih_l1 f4 [256]
-0.09025589 0.087063506 0.049562898 0.42212147 0.28283134 0.0033571208 0.18577142 0.43974727
0.5982778 0.16647875 0.3151093 0.09298738 0.2823968 0.5230465 0.38210198 -0.074475735
0.22378036 -0.07966257 0.23600711 0.041600764 0.091133356 0.29658577 0.33159328 0.7292071
0.2534335 0.30002102 0.106441356 0.08869354 0.41651553 0.4990416 0.40629762 0.6689922
0.058637526 0.0447438 0.16461658 -0.027050331 0.18673095 0.24745534 0.24436237 0.07186618
0.38683876 0.58349 0.142435 0.02615773 0.21271394 0.27989882 -0.03893837 -0.056778233
0.25821123 0.20803185 0.22771183 0.26311812 0.0033140548 0.36082515 0.08888539 -0.011955322
0.009680267 0.11150365 -0.017713228 0.12884429 -0.036006145 0.07851285 -0.009932204 0.093759716
0.052504998 0.044878136 0.0779274 -0.01930166 0.1608752 0.28830191 0.03562166 -0.073043406
-0.11787168 0.32786104 -0.10286548 -0.07931484 -0.14034994 0.1454648 -0.08537183 0.06867897
-0.018304018 0.14702448 0.12462806 0.115978904 0.06672556 -0.06437118 0.15488623 -0.23504218
0.022631386 0.1777982 0.13590074 0.24658969 -0.04114431 -0.071295284 -0.2776633 -0.059215534
0.06954001 0.08145364 -0.02253345 0.03328758 0.11569494 -0.102328576 -0.16060872 0.06187191
-0.13375631 -0.07383795 0.08771776 0.019957028 0.05582574 -0.04066217 -0.08452432 -0.0104467925
0.22593199 -0.26540843 -0.05606603 -0.14421137 0.08188409 0.24205057 0.1284278 0.013017214
0.02484427 0.17494564 0.03607991 0.033111308 0.09218081 0.07653293 -0.039279126 0.10484387
-0.05928548 0.14752439 -0.08285518 -0.19470944 0.01879226 0.046135344 -0.08295956 0.044201847
-0.035694484 0.031672794 0.048087444 0.05038078 0.14683633 0.102637686 0.15599485 -0.11919178
-0.05734566 0.027560202 -0.06381522 0.19565794 -0.04116777 -0.17766109 0.04978927 -0.026410233
-0.02792174 0.18459743 0.09904501 -0.03486384 0.07309609 -0.17904155 -0.0712265 -0.042179108
-0.0133625055 0.14628358 0.16103029 -0.0367416 0.07046313 0.012253645 0.13813563 0.060345516
-0.16042836 0.13536464 -0.032549456 0.15354645 0.06471078 -0.06578055 0.16713038 -0.06532149
-0.12267131 -0.020561952 0.18947533 0.09031423 -0.12903063 -0.0075937333 -0.14108546 -0.05813063
0.059366785 -0.14475697 0.1533306 0.029224016 -0.03862915 0.095783725 0.08897334 -0.082983226
-0.17862208 0.028237307 0.06511392 0.53185713 0.19410218 0.06496738 0.14422435 0.30306572
0.43420076 0.31302923 0.1462771 0.14473464 0.31427714 0.20473208 0.12204489 0.018094268
0.31166896 -0.004661333 0.42125756 -0.11363137 0.18219708 0.1556442 0.29422846 0.55477226
0.23801617 0.15992205 -0.041700747 0.07504493 0.2975588 0.011547514 0.3891444 0.30030552
0.13630062 0.11784667 0.16284433 0.21772487 0.075093806 0.2140704 0.1349211 0.10008235
0.20831129 0.22252771 0.22359937 -0.0035931494 0.2454909 0.13426389 0.16718699 0.10159675
0.18739592 0.084885046 0.30498987 0.16374213 0.10889971 0.15314583 -0.036506828 0.020701563
0.0478397 0.10310685 -0.066850804 0.2833123 -0.08635912 0.10702074 -0.18817954 0.15252988
00000000: 14d8 b8bd 5a4e b23d 7702 4b3d 4e20 d83e
00000010: 45cf 903e 2403 5c3b dd3a 3e3e 8e26 e13e
00000020: bc28 193f 6879 2a3e 0256 a13e 2b70 be3d
00000030: 5096 903e 60e6 053f dfa2 c33e bc86 98bd
00000040: ae26 653e 2126 a3bd d9ab 713e 9065 2a3d
00000050: 20a4 ba3d 17da 973e 98c6 a93e 51ad 3a3f
00000060: 09c2 813e 5b9c 993e edfd d93d f5a4 b53d
00000070: 8641 d53e 6182 ff3e 3e06 d03e 1343 2b3f
00000080: e72d 703d 4645 373d 4091 283e a898 ddbc
00000090: 6636 3f3e ef64 7d3e 213a 7a3e 932e 933d
000000a0: bb0f c63e 9a5f 153f 7bda 113e bc48 d63c
000000b0: afd1 593e e64e 8f3e d77d 1fbd 4b90 68bd
000000c0: 4334 843e 4d06 553e 4a2d 693e 6bb7 863e
000000d0: 9d30 593b 13be b83e 8b09 b63d 41e0 43bc
000000e0: fc99 1e3c 075c e43d 551b 91bc c2ef 033e
000000f0: 2e7b 13bd 58cb a03d afba 22bc 1805 c03d
00000100: 7b0f 573d 23d2 373d 6798 9f3d 841e 9ebc
00000110: 78bc 243e 4f9c 933e 05e8 113d c897 95bd
00000120: b566 f1bd 67dd a73e 23ab d2bd d26f a2bd
00000130: e5b7 0fbe b9f4 143e 6dd7 aebd 8fa7 8c3d
00000140: 4ff2 95bc 968d 163e ff3c ff3d 5986 ed3d
00000150: 69a7 883d 0ad5 83bd 7f9a 1e3e e6ae 70be
00000160: 7565 b93c bb10 363e 9029 0b3e 0282 7c3e
00000170: f086 28bd 4303 92bd e229 8ebe fd8b 72bd
00000180: fe6a 8e3d 2ad1 a63d 1298 b8bc 8f58 083d
00000190: 78f1 ec3d a591 d1bd 9d76 24be 666d 7d3d
000001a0: 6af7 08be 5a38 97bd 5ea5 b33d ec7c a33c
000001b0: 88a9 643d 608d 26bd 161b adbd 0629 2bbc
000001c0: b75a 673e 9de3 87be 7ea5 65bd 25ac 13be
000001d0: d9b2 a73d 1bdc 773e 9482 033e 2746 553c
000001e0: 3686 cb3c f324 333e 87c8 133d b99f 073d
000001f0: 4bc9 bc3d 4cbd 9c3d 26e3 20bd 62b8 d63d
00000200: 55d5 72bd a210 173e faaf a9bd e961 47be
00000210: 3af2 993c 6af8 3c3d b4e6 a9bd ff0c 353d
00000220: 6134 12bd 55bb 013d 57f7 443d 145c 4e3d
00000230: 435c 163e b533 d23d 1dbd 1f3e d21a f4bd
00000240: 48e3 6abd efc5 e13c 8eb1 82bd 8e5a 483e
00000250: 899f 28bd caec 35be d5ef 4b3d 465a d8bc
00000260: 22bc e4bc 1c07 3d3e 1cd8 ca3d 63cd 0ebd
00000270: 67b3 953d ab56 37be 33df 91bd 00c4 2cbd
00000280: 69ee 5abc 5dcb 153e 20e5 243e 5c7e 16bd
00000290: f94e 903d 83c3 483c 6d73 0d3e dc2c 773d
000002a0: 5547 24be 079d 0a3e 9452 05bd 483b 1d3e
000002b0: 1687 843d f4b7 86bd 3a24 2b3e 46c7 85bd
000002c0: 193b fbbd 8a71 a8bc d205 423e abf6 b83d
000002d0: 9b20 04be dad4 f8bb b578 10be 621a 6ebd
000002e0: 962a 733d 2c3b 14be b202 1d3e 3467 ef3c
000002f0: 9939 1ebd 422a c43d a837 b63d 1cf3 a9bd
00000300: b5e8 36be ed51 e73c 725a 853d ca27 083f
00000310: b9c2 463e 9e0d 853d 8caf 133e 6e2b 9b3e
00000320: 904f de3e 5e45 a03e aac9 153e 5135 143e
00000330: efe8 a03e 49a5 513e acf2 f93d 6e3a 943c
00000340: 1393 9f3e 18be 98bb 12af d73e 90b7 e8bd
00000350: df91 3a3e 3161 1f3e 1da5 963e 8e05 0e3f
00000360: 83ba 733e 9bc2 233e 67ce 2abd 28b1 993d
00000370: a159 983e c931 3d3c ef3d c73e a5c1 993e
00000380: 6492 0b3e 9859 f13d aac0 263e 45f3 5e3e
00000390: c8ca 993d 4535 5b3e c228 0a3e faf7 cc3d
000003a0: 8e4f 553e 4ede 633e 3cf7 643e 0b7b 6bbb
000003b0: f761 7b3e 797c 093e 1133 2b3e f511 d03d
000003c0: b7e4 3f3e 36d8 ad3d a227 9c3e 04ac 273e
000003d0: d006 df3d 43d2 1c3e 2f88 15bd 5396 a93c
000003e0: 90f3 433d af29 d33d 13e9 88bd 4f0e 913e
000003f0: 0ddd b0bd b12d db3d 23b2 40be cb30 1c3e

lstm.bias_hh_l1 f4 [256]
-0.19351308 -0.103438824 -0.027495353 0.51076317 0.2688756 0.12331902 0.110313945 0.28269538
0.7114475 0.26013663 0.37407717 0.14688121 0.19359024 0.37524706 0.16012385 0.08993566
0.3900527 0.055891287 0.44376105 0.15264101 0.14565063 0.4360034 0.21716739 0.850208
0.1448089 0.27229205 0.059315935 0.024517076 0.5067273 0.49567682 0.46853063 0.64133626
0.018075634 0.006080021 0.32243812 0.026708826 0.09519248 0.07150591 0.3836687 0.018888278
0.48176634 0.6967468 0.16016077 0.093587965 0.43363297 0.33449855 0.17653765 -0.15445898
0.21674329 0.34237093 0.2546508 0.33351725 0.04504676 0.29094994 -0.047416974 0.18365934
0.020879423 -0.04657003 0.0839367 0.20115143 0.16206092 0.15077779 0.23252916 0.21420978
0.09206227 0.22230098 0.13959648 -0.062905096 -0.012310535 0.28125185 -0.031971928 -0.15058006
-0.19284728 0.25755313 -0.13271475 -0.18656142 -0.14046073 0.109530784 0.07631257 0.031485878
-0.05518456 0.045834348 0.007376236 0.050917555 0.0031372728 0.07520519 0.15135257 -0.098492175
-0.15402327 0.23113479 0.09057522 0.06992154 0.082222745 -0.15971558 -0.24042016 -0.16386692
-0.10853744 0.051163085 0.06907315 -0.09094323 0.005354138 -0.025515098 -0.29766238 -0.084231965
-0.14513563 -0.18850884 0.25299135 0.004098656 0.05593861 0.07210512 0.07536188 0.07596913
0.18398045 -0.17056033 -0.04940018 -0.25083098 0.14651598 0.24155962 0.1641668 -0.00011481987
-0.1613317 0.008240126 -0.09511943 0.16493517 0.21194427 0.011221732 0.025858117 -0.10917068
0.029853195 0.07236631 -0.13534978 -0.034023866 -0.056650538 -0.04515425 0.006663059 -0.17096305
-0.0029653113 0.15943217 0.013560103 -0.007755481 0.109085545 0.13021019 -0.0020152917 -0.03512873
-0.03625566 0.008473083 0.09262928 0.012421264 0.06547793 0.037987646 -0.05044045 -0.09930834
0.10982696 0.22625364 0.234214 -0.04612845 -0.11996892 -0.126143 4.695957e-05 -0.14601594
-0.06000924 0.090176865 -0.00035188269 0.030175526 0.08822572 -0.02622247 0.17727964 0.15857778
-0.06183268 0.0342164 0.086014576 0.04568267 0.049082894 0.015888764 0.028764734 -0.026660992
-0.29210624 -0.027698781 0.084542684 0.04448218 -0.22883603 -0.02991599 -0.16214836 -0.19150996
0.05793094 -0.067194216 0.11085314 -0.177646 0.11773409 -0.007870548 0.19926207 -0.08335445
-0.1333719 0.11888193 -0.046549547 0.3657451 0.26471856 0.15720968 0.3462395 0.18858665
0.34000683 0.22698696 0.19607538 0.2396449 0.23791753 0.2647973 0.21864533 0.019563042
0.32978022 0.11993702 0.22266981 -0.008222396 0.07740377 0.12275491 0.1906973 0.56256807
0.23891225 0.10833816 -0.057369955 0.008461205 0.23083341 0.0119646145 0.532269 0.3484132
0.15234882 0.16255541 0.15550357 0.12991966 -0.02174456 0.32930577 0.20027032 0.12672865
0.29429668 0.39149934 0.2338205 0.07666524 0.240883 0.19403087 0.098501295 0.08783739
0.20861158 0.09532393 0.35618275 0.044083126 0.1055908 0.13055901 -0.061988767 0.05994415
0.052929506 0.046958633 0.09697044 0.19457309 0.07971948 0.05618881 -0.19738914 0.23938398
00000000: 4b28 46be bcd7 d3bd ef3d e1bc 60c1 023f
00000010: 10aa 893e af8e fc3d 47ec e13d 73bd 903e
00000020: 6c21 363f a130 853e 0b87 bf3e 0768 163e
00000030: 853c 463e 6220 c03e 82f7 233e 3030 b83d
00000040: fdb4 c73e 43ee 643d a634 e33e ed4d 1c3e
00000050: 7025 153e d63b df3e 2161 5e3e 3ba7 593f
00000060: c948 143e dd69 8b3e 44f5 723d 09d8 c83c
00000070: e1b8 013f 5ac9 fd3e 3fe3 ef3e 9d2e 243f
00000080: 5a13 943c ea3a c73b 9c16 a53e 78cc da3c
00000090: 46f4 c23d b171 923d 3970 c43e 97bb 9a3c
000000a0: 14aa f63e 005e 323f 2f01 243e 0cab bf3d
000000b0: 2405 de3e 6543 ab3e 49c6 343e 7f2a 1ebe
000000c0: f4f1 5d3e 3e4b af3e 9761 823e c6c2 aa3e
000000d0: f482 383d 64f7 943e 4d38 42bd 3211 3c3e
000000e0: 530b ab3c 37c0 3ebd 01e7 ab3d a4fa 4d3e
000000f0: 4cf3 253e 7e65 1a3e 201c 6e3e cf59 5b3e
00000100: 258b bc3d dea2 633e 61f2 0e3e 63d4 80bd
00000110: 20b2 49bc 3e00 903e fff4 02bd a931 1abe
00000120: c279 45be 01de 833e 60e6 07be f509 3fbe
00000130: f0d4 0fbe ad51 e03d c449 9c3d 56f7 003d
00000140: 3509 62bd ccbc 3b3d 5ab4 f13b ed8e 503d
00000150: b49a 4d3b 2e05 9a3d 2bfc 1a3e 44b6 c9bd
00000160: 47b8 1dbe 99ae 6c3e 807f b93d 0633 8f3d
00000170: 6664 a83d 7b8c 23be b430 76be bbcc 27be
00000180: e148 debd 6290 513d 3976 8d3d 7240 babd
00000190: c471 af3b 0a05 d1bc 3467 98be cf81 acbd
000001a0: 6f9e 14be 7608 41be 1588 813e 054e 863b
000001b0: e21f 653d d9ab 933d 5457 9a3d b495 9b3d
000001c0: 5f65 3c3e 5ea7 2ebe d857 4abd eb6c 80be
000001d0: 4908 163e 685b 773e 571b 283e 73cb f0b8
000001e0: 2334 25be 9801 073c facd c2bd c4e4 283e
000001f0: eb07 593e 5bdb 373c 67d4 d33c e194 dfbd
00000200: b08e f43c ca34 943d 2299 0abe 9c5c 0bbd
00000210: 650a 68bd aaf3 38bd ca55 da3b f010 2fbe
00000220: ab55 42bb 3042 233e 322b 5e3c b121 febb
00000230: 3e68 df3d d255 053e fc12 04bb 25e3 0fbd
00000240: d180 14bd b0d2 0a3c 6cb4 bd3d 8f82 4b3c
00000250: 4b19 863d ef98 1b3d a59a 4ebd 2c62 cbbd
00000260: f5ec e03d 09af 673e cbd5 6f3e 30f1 3cbd
00000270: 44b2 f5bd a12b 01be 74f6 4438 3485 15be
00000280: 40cc 75bd a6ae b83d e57c b8b9 aa32 f73c
00000290: b0af b43d 81d0 d6bc cb88 353e 3762 223e
000002a0: 4444 7dbd 7f26 0c3d 6928 b03d c01d 3b3d
000002b0: 250b 493d 2729 823c 05a4 eb3c 2768 dabc
000002c0: f38e 95be 8ee8 e2bc b724 ad3d f232 363d
000002d0: fe53 6abe 6112 f5bc 380a 26be 301b 44be
000002e0: fe48 6d3d 1f9d 89bd f906 e33d d5e8 35be
000002f0: 921e f13d 79f3 00bc 5b0b 4c3e bdb5 aabd
00000300: a592 08be 5f78 f33d bdaa 3ebd f142 bb3e
00000310: 3189 873e 93fb 203e 4e46 b13e dc1c 413e
00000320: 6015 ae3e 456f 683e fcc7 483e 7965 753e
00000330: a7a0 733e 8393 873e 90e4 5f3e ac42 a03c
00000340: f4d8 a83e 8aa1 f53d 8e03 643e 3ab7 06bc
00000350: de85 9e3d ed66 fb3d 2746 433e 7604 103f
00000360: 6aa5 743e 66e0 dd3d c2fc 6abd dea0 0a3c
00000370: 985f 6c3e 3b07 443c c842 083f 3763 b23e
00000380: 5401 1c3e ed74 263e 543c 1f3e a909 053e
00000390: a621 b2bc c49a a83e aa13 4d3e 28c5 013e
000003a0: 0eae 963e 9a72 c83e a46e 6f3e aa02 9d3d
000003b0: 08aa 763e 07b0 463e 0cbb c93d 17e4 b33d
000003c0: 469e 553e 3139 c33d 965d b63e 8290 343d
000003d0: fd3f d83d 43b1 053e efe7 7dbd ff87 753d
000003e0: 9ccc 583d b257 403d 7098 c63d 2b3e 473e
000003f0: f743 a33d 3d26 663d 6120 4abe 1321 753e
